Model: "model"
__________________________________________________________________________________________________
Layer (type)                    Output Shape         Param #     Connected to                     
==================================================================================================
input_1 (InputLayer)            [(None, 512, 1024, 3 0                                            
__________________________________________________________________________________________________
conv1_pad (ZeroPadding2D)       (None, 518, 1030, 3) 0           input_1[0][0]                    
__________________________________________________________________________________________________
conv1_conv (Conv2D)             (None, 256, 512, 64) 9472        conv1_pad[0][0]                  
__________________________________________________________________________________________________
pool1_pad (ZeroPadding2D)       (None, 258, 514, 64) 0           conv1_conv[0][0]                 
__________________________________________________________________________________________________
pool1_pool (MaxPooling2D)       (None, 128, 256, 64) 0           pool1_pad[0][0]                  
__________________________________________________________________________________________________
conv2_block1_preact_bn (BatchNo (None, 128, 256, 64) 256         pool1_pool[0][0]                 
__________________________________________________________________________________________________
conv2_block1_preact_relu (Activ (None, 128, 256, 64) 0           conv2_block1_preact_bn[0][0]     
__________________________________________________________________________________________________
conv2_block1_1_conv (Conv2D)    (None, 128, 256, 64) 4096        conv2_block1_preact_relu[0][0]   
__________________________________________________________________________________________________
conv2_block1_1_bn (BatchNormali (None, 128, 256, 64) 256         conv2_block1_1_conv[0][0]        
__________________________________________________________________________________________________
conv2_block1_1_relu (Activation (None, 128, 256, 64) 0           conv2_block1_1_bn[0][0]          
__________________________________________________________________________________________________
conv2_block1_2_pad (ZeroPadding (None, 130, 258, 64) 0           conv2_block1_1_relu[0][0]        
__________________________________________________________________________________________________
conv2_block1_2_conv (Conv2D)    (None, 128, 256, 64) 36864       conv2_block1_2_pad[0][0]         
__________________________________________________________________________________________________
conv2_block1_2_bn (BatchNormali (None, 128, 256, 64) 256         conv2_block1_2_conv[0][0]        
__________________________________________________________________________________________________
conv2_block1_2_relu (Activation (None, 128, 256, 64) 0           conv2_block1_2_bn[0][0]          
__________________________________________________________________________________________________
conv2_block1_0_conv (Conv2D)    (None, 128, 256, 256 16640       conv2_block1_preact_relu[0][0]   
__________________________________________________________________________________________________
conv2_block1_3_conv (Conv2D)    (None, 128, 256, 256 16640       conv2_block1_2_relu[0][0]        
…
                                                                 conv2_block1_3_conv[0][0]        
__________________________________________________________________________________________________
conv2_block2_preact_bn (BatchNo (None, 128, 256, 256 1024        conv2_block1_out[0][0]           
__________________________________________________________________________________________________
conv2_block2_preact_relu (Activ (None, 128, 256, 256 0           conv2_block2_preact_bn[0][0]     
__________________________________________________________________________________________________
conv2_block2_1_conv (Conv2D)    (None, 128, 256, 64) 16384       conv2_block2_preact_relu[0][0]   
__________________________________________________________________________________________________
conv2_block2_1_bn (BatchNormali (None, 128, 256, 64) 256         conv2_block2_1_conv[0][0]        
__________________________________________________________________________________________________
conv2_block2_1_relu (Activation (None, 128, 256, 64) 0           conv2_block2_1_bn[0][0]          
__________________________________________________________________________________________________
conv2_block2_2_pad (ZeroPadding (None, 130, 258, 64) 0           conv2_block2_1_relu[0][0]        
__________________________________________________________________________________________________
conv2_block2_2_conv (Conv2D)    (None, 128, 256, 64) 36864       conv2_block2_2_pad[0][0]         
__________________________________________________________________________________________________
conv2_block2_2_bn (BatchNormali (None, 128, 256, 64) 256         conv2_block2_2_conv[0][0]        
__________________________________________________________________________________________________
conv2_block2_2_relu (Activation (None, 128, 256, 64) 0           conv2_block2_2_bn[0][0]          
__________________________________________________________________________________________________
conv2_block2_3_conv (Conv2D)    (None, 128, 256, 256 16640       conv2_block2_2_relu[0][0]        
__________________________________________________________________________________________________
conv2_block2_out (Add)          (None, 128, 256, 256 0           conv2_block1_out[0][0]           
                                                                 conv2_block2_3_conv[0][0]        
__________________________________________________________________________________________________
conv2_block3_preact_bn (BatchNo (None, 128, 256, 256 1024        conv2_block2_out[0][0]           
__________________________________________________________________________________________________
conv2_block3_preact_relu (Activ (None, 128, 256, 256 0           conv2_block3_preact_bn[0][0]     
__________________________________________________________________________________________________
conv2_block3_1_conv (Conv2D)    (None, 128, 256, 64) 16384       conv2_block3_preact_relu[0][0]   
__________________________________________________________________________________________________
conv2_block3_1_bn (BatchNormali (None, 128, 256, 64) 256         conv2_block3_1_conv[0][0]        
__________________________________________________________________________________________________
conv2_block3_1_relu (Activation (None, 128, 256, 64) 0           conv2_block3_1_bn[0][0]          
__________________________________________________________________________________________________
conv2_block3_2_pad (ZeroPadding (None, 130, 258, 64) 0           conv2_block3_1_relu[0][0]        
__________________________________________________________________________________________________
conv2_block3_2_conv (Conv2D)    (None, 64, 128, 64)  36864       conv2_block3_2_pad[0][0]         
__________________________________________________________________________________________________
conv2_block3_2_bn (BatchNormali (None, 64, 128, 64)  256         conv2_block3_2_conv[0][0]        
__________________________________________________________________________________________________
conv2_block3_2_relu (Activation (None, 64, 128, 64)  0           conv2_block3_2_bn[0][0]          
__________________________________________________________________________________________________
max_pooling2d (MaxPooling2D)    (None, 64, 128, 256) 0           conv2_block2_out[0][0]           
__________________________________________________________________________________________________
conv2_block3_3_conv (Conv2D)    (None, 64, 128, 256) 16640       conv2_block3_2_relu[0][0]        
__________________________________________________________________________________________________
conv2_block3_out (Add)          (None, 64, 128, 256) 0           max_pooling2d[0][0]              
                                                                 conv2_block3_3_conv[0][0]        
__________________________________________________________________________________________________
conv3_block1_preact_bn (BatchNo (None, 64, 128, 256) 1024        conv2_block3_out[0][0]           
__________________________________________________________________________________________________
conv3_block1_preact_relu (Activ (None, 64, 128, 256) 0           conv3_block1_preact_bn[0][0]     
__________________________________________________________________________________________________
conv3_block1_1_conv (Conv2D)    (None, 64, 128, 128) 32768       conv3_block1_preact_relu[0][0]   
__________________________________________________________________________________________________
conv3_block1_1_bn (BatchNormali (None, 64, 128, 128) 512         conv3_block1_1_conv[0][0]        
__________________________________________________________________________________________________
conv3_block1_1_relu (Activation (None, 64, 128, 128) 0           conv3_block1_1_bn[0][0]          
__________________________________________________________________________________________________
conv3_block1_2_pad (ZeroPadding (None, 66, 130, 128) 0           conv3_block1_1_relu[0][0]        
__________________________________________________________________________________________________
conv3_block1_2_conv (Conv2D)    (None, 64, 128, 128) 147456      conv3_block1_2_pad[0][0]         
__________________________________________________________________________________________________
conv3_block1_2_bn (BatchNormali (None, 64, 128, 128) 512         conv3_block1_2_conv[0][0]        
__________________________________________________________________________________________________
conv3_block1_2_relu (Activation (None, 64, 128, 128) 0           conv3_block1_2_bn[0][0]          
__________________________________________________________________________________________________
conv3_block1_0_conv (Conv2D)    (None, 64, 128, 512) 131584      conv3_block1_preact_relu[0][0]   
__________________________________________________________________________________________________
conv3_block1_3_conv (Conv2D)    (None, 64, 128, 512) 66048       conv3_block1_2_relu[0][0]        
__________________________________________________________________________________________________
conv3_block1_out (Add)          (None, 64, 128, 512) 0           conv3_block1_0_conv[0][0]        
                                                                 conv3_block1_3_conv[0][0]        
__________________________________________________________________________________________________
conv3_block2_preact_bn (BatchNo (None, 64, 128, 512) 2048        conv3_block1_out[0][0]           
__________________________________________________________________________________________________
conv3_block2_preact_relu (Activ (None, 64, 128, 512) 0           conv3_block2_preact_bn[0][0]     
__________________________________________________________________________________________________
conv3_block2_1_conv (Conv2D)    (None, 64, 128, 128) 65536       conv3_block2_preact_relu[0][0]   
__________________________________________________________________________________________________
conv3_block2_1_bn (BatchNormali (None, 64, 128, 128) 512         conv3_block2_1_conv[0][0]        
__________________________________________________________________________________________________
conv3_block2_1_relu (Activation (None, 64, 128, 128) 0           conv3_block2_1_bn[0][0]          
__________________________________________________________________________________________________
conv3_block2_2_pad (ZeroPadding (None, 66, 130, 128) 0           conv3_block2_1_relu[0][0]        
__________________________________________________________________________________________________
conv3_block2_2_conv (Conv2D)    (None, 64, 128, 128) 147456      conv3_block2_2_pad[0][0]         
__________________________________________________________________________________________________
conv3_block2_2_bn (BatchNormali (None, 64, 128, 128) 512         conv3_block2_2_conv[0][0]        
__________________________________________________________________________________________________
conv3_block2_2_relu (Activation (None, 64, 128, 128) 0           conv3_block2_2_bn[0][0]          
__________________________________________________________________________________________________
conv3_block2_3_conv (Conv2D)    (None, 64, 128, 512) 66048       conv3_block2_2_relu[0][0]        
__________________________________________________________________________________________________
conv3_block2_out (Add)          (None, 64, 128, 512) 0           conv3_block1_out[0][0]           
                                                                 conv3_block2_3_conv[0][0]        
__________________________________________________________________________________________________
conv3_block3_preact_bn (BatchNo (None, 64, 128, 512) 2048        conv3_block2_out[0][0]           
__________________________________________________________________________________________________
conv3_block3_preact_relu (Activ (None, 64, 128, 512) 0           conv3_block3_preact_bn[0][0]     
__________________________________________________________________________________________________
conv3_block3_1_conv (Conv2D)    (None, 64, 128, 128) 65536       conv3_block3_preact_relu[0][0]   
__________________________________________________________________________________________________
conv3_block3_1_bn (BatchNormali (None, 64, 128, 128) 512         conv3_block3_1_conv[0][0]        
__________________________________________________________________________________________________
conv3_block3_1_relu (Activation (None, 64, 128, 128) 0           conv3_block3_1_bn[0][0]          
__________________________________________________________________________________________________
conv3_block3_2_pad (ZeroPadding (None, 66, 130, 128) 0           conv3_block3_1_relu[0][0]        
__________________________________________________________________________________________________
conv3_block3_2_conv (Conv2D)    (None, 64, 128, 128) 147456      conv3_block3_2_pad[0][0]         
__________________________________________________________________________________________________
conv3_block3_2_bn (BatchNormali (None, 64, 128, 128) 512         conv3_block3_2_conv[0][0]        
__________________________________________________________________________________________________
conv3_block3_2_relu (Activation (None, 64, 128, 128) 0           conv3_block3_2_bn[0][0]          
__________________________________________________________________________________________________
conv3_block3_3_conv (Conv2D)    (None, 64, 128, 512) 66048       conv3_block3_2_relu[0][0]        
__________________________________________________________________________________________________
conv3_block3_out (Add)          (None, 64, 128, 512) 0           conv3_block2_out[0][0]           
                                                                 conv3_block3_3_conv[0][0]        
__________________________________________________________________________________________________
conv3_block4_preact_bn (BatchNo (None, 64, 128, 512) 2048        conv3_block3_out[0][0]           
__________________________________________________________________________________________________
conv3_block4_preact_relu (Activ (None, 64, 128, 512) 0           conv3_block4_preact_bn[0][0]     
__________________________________________________________________________________________________
conv3_block4_1_conv (Conv2D)    (None, 64, 128, 128) 65536       conv3_block4_preact_relu[0][0]   
__________________________________________________________________________________________________
conv3_block4_1_bn (BatchNormali (None, 64, 128, 128) 512         conv3_block4_1_conv[0][0]        
__________________________________________________________________________________________________
conv3_block4_1_relu (Activation (None, 64, 128, 128) 0           conv3_block4_1_bn[0][0]          
__________________________________________________________________________________________________
conv3_block4_2_pad (ZeroPadding (None, 66, 130, 128) 0           conv3_block4_1_relu[0][0]        
__________________________________________________________________________________________________
conv3_block4_2_conv (Conv2D)    (None, 32, 64, 128)  147456      conv3_block4_2_pad[0][0]         
__________________________________________________________________________________________________
conv3_block4_2_bn (BatchNormali (None, 32, 64, 128)  512         conv3_block4_2_conv[0][0]        
__________________________________________________________________________________________________
conv3_block4_2_relu (Activation (None, 32, 64, 128)  0           conv3_block4_2_bn[0][0]          
__________________________________________________________________________________________________
max_pooling2d_1 (MaxPooling2D)  (None, 32, 64, 512)  0           conv3_block3_out[0][0]           
__________________________________________________________________________________________________
conv3_block4_3_conv (Conv2D)    (None, 32, 64, 512)  66048       conv3_block4_2_relu[0][0]        
__________________________________________________________________________________________________
conv3_block4_out (Add)          (None, 32, 64, 512)  0           max_pooling2d_1[0][0]            
                                                                 conv3_block4_3_conv[0][0]        
__________________________________________________________________________________________________
conv4_block1_preact_bn (BatchNo (None, 32, 64, 512)  2048        conv3_block4_out[0][0]           
__________________________________________________________________________________________________
conv4_block1_preact_relu (Activ (None, 32, 64, 512)  0           conv4_block1_preact_bn[0][0]     
__________________________________________________________________________________________________
conv4_block1_1_conv (Conv2D)    (None, 32, 64, 256)  131072      conv4_block1_preact_relu[0][0]   
__________________________________________________________________________________________________
conv4_block1_1_bn (BatchNormali (None, 32, 64, 256)  1024        conv4_block1_1_conv[0][0]        
__________________________________________________________________________________________________
conv4_block1_1_relu (Activation (None, 32, 64, 256)  0           conv4_block1_1_bn[0][0]          
__________________________________________________________________________________________________
conv4_block1_2_pad (ZeroPadding (None, 34, 66, 256)  0           conv4_block1_1_relu[0][0]        
__________________________________________________________________________________________________
conv4_block1_2_conv (Conv2D)    (None, 32, 64, 256)  589824      conv4_block1_2_pad[0][0]         
__________________________________________________________________________________________________
conv4_block1_2_bn (BatchNormali (None, 32, 64, 256)  1024        conv4_block1_2_conv[0][0]        
__________________________________________________________________________________________________
conv4_block1_2_relu (Activation (None, 32, 64, 256)  0           conv4_block1_2_bn[0][0]          
__________________________________________________________________________________________________
conv4_block1_0_conv (Conv2D)    (None, 32, 64, 1024) 525312      conv4_block1_preact_relu[0][0]   
__________________________________________________________________________________________________
conv4_block1_3_conv (Conv2D)    (None, 32, 64, 1024) 263168      conv4_block1_2_relu[0][0]        
__________________________________________________________________________________________________
conv4_block1_out (Add)          (None, 32, 64, 1024) 0           conv4_block1_0_conv[0][0]        
                                                                 conv4_block1_3_conv[0][0]        
__________________________________________________________________________________________________
conv4_block2_preact_bn (BatchNo (None, 32, 64, 1024) 4096        conv4_block1_out[0][0]           
__________________________________________________________________________________________________
conv4_block2_preact_relu (Activ (None, 32, 64, 1024) 0           conv4_block2_preact_bn[0][0]     
__________________________________________________________________________________________________
conv4_block2_1_conv (Conv2D)    (None, 32, 64, 256)  262144      conv4_block2_preact_relu[0][0]   
__________________________________________________________________________________________________
conv4_block2_1_bn (BatchNormali (None, 32, 64, 256)  1024        conv4_block2_1_conv[0][0]        
__________________________________________________________________________________________________
conv4_block2_1_relu (Activation (None, 32, 64, 256)  0           conv4_block2_1_bn[0][0]          
__________________________________________________________________________________________________
conv4_block2_2_pad (ZeroPadding (None, 34, 66, 256)  0           conv4_block2_1_relu[0][0]        
__________________________________________________________________________________________________
conv4_block2_2_conv (Conv2D)    (None, 32, 64, 256)  589824      conv4_block2_2_pad[0][0]         
__________________________________________________________________________________________________
conv4_block2_2_bn (BatchNormali (None, 32, 64, 256)  1024        conv4_block2_2_conv[0][0]        
__________________________________________________________________________________________________
conv4_block2_2_relu (Activation (None, 32, 64, 256)  0           conv4_block2_2_bn[0][0]          
__________________________________________________________________________________________________
conv4_block2_3_conv (Conv2D)    (None, 32, 64, 1024) 263168      conv4_block2_2_relu[0][0]        
__________________________________________________________________________________________________
conv4_block2_out (Add)          (None, 32, 64, 1024) 0           conv4_block1_out[0][0]           
                                                                 conv4_block2_3_conv[0][0]        
__________________________________________________________________________________________________
conv4_block3_preact_bn (BatchNo (None, 32, 64, 1024) 4096        conv4_block2_out[0][0]           
__________________________________________________________________________________________________
conv4_block3_preact_relu (Activ (None, 32, 64, 1024) 0           conv4_block3_preact_bn[0][0]     
__________________________________________________________________________________________________
conv4_block3_1_conv (Conv2D)    (None, 32, 64, 256)  262144      conv4_block3_preact_relu[0][0]   
__________________________________________________________________________________________________
conv4_block3_1_bn (BatchNormali (None, 32, 64, 256)  1024        conv4_block3_1_conv[0][0]        
__________________________________________________________________________________________________
conv4_block3_1_relu (Activation (None, 32, 64, 256)  0           conv4_block3_1_bn[0][0]          
__________________________________________________________________________________________________
conv4_block3_2_pad (ZeroPadding (None, 34, 66, 256)  0           conv4_block3_1_relu[0][0]        
__________________________________________________________________________________________________
conv4_block3_2_conv (Conv2D)    (None, 32, 64, 256)  589824      conv4_block3_2_pad[0][0]         
__________________________________________________________________________________________________
conv4_block3_2_bn (BatchNormali (None, 32, 64, 256)  1024        conv4_block3_2_conv[0][0]        
__________________________________________________________________________________________________
conv4_block3_2_relu (Activation (None, 32, 64, 256)  0           conv4_block3_2_bn[0][0]          
__________________________________________________________________________________________________
conv4_block3_3_conv (Conv2D)    (None, 32, 64, 1024) 263168      conv4_block3_2_relu[0][0]        
__________________________________________________________________________________________________
conv4_block3_out (Add)          (None, 32, 64, 1024) 0           conv4_block2_out[0][0]           
                                                                 conv4_block3_3_conv[0][0]        
__________________________________________________________________________________________________
conv4_block4_preact_bn (BatchNo (None, 32, 64, 1024) 4096        conv4_block3_out[0][0]           
__________________________________________________________________________________________________
conv4_block4_preact_relu (Activ (None, 32, 64, 1024) 0           conv4_block4_preact_bn[0][0]     
__________________________________________________________________________________________________
conv4_block4_1_conv (Conv2D)    (None, 32, 64, 256)  262144      conv4_block4_preact_relu[0][0]   
__________________________________________________________________________________________________
conv4_block4_1_bn (BatchNormali (None, 32, 64, 256)  1024        conv4_block4_1_conv[0][0]        
__________________________________________________________________________________________________
conv4_block4_1_relu (Activation (None, 32, 64, 256)  0           conv4_block4_1_bn[0][0]          
__________________________________________________________________________________________________
conv4_block4_2_pad (ZeroPadding (None, 34, 66, 256)  0           conv4_block4_1_relu[0][0]        
__________________________________________________________________________________________________
conv4_block4_2_conv (Conv2D)    (None, 32, 64, 256)  589824      conv4_block4_2_pad[0][0]         
__________________________________________________________________________________________________
conv4_block4_2_bn (BatchNormali (None, 32, 64, 256)  1024        conv4_block4_2_conv[0][0]        
__________________________________________________________________________________________________
conv4_block4_2_relu (Activation (None, 32, 64, 256)  0           conv4_block4_2_bn[0][0]          
__________________________________________________________________________________________________
conv4_block4_3_conv (Conv2D)    (None, 32, 64, 1024) 263168      conv4_block4_2_relu[0][0]        
__________________________________________________________________________________________________
conv4_block4_out (Add)          (None, 32, 64, 1024) 0           conv4_block3_out[0][0]           
                                                                 conv4_block4_3_conv[0][0]        
__________________________________________________________________________________________________
conv4_block5_preact_bn (BatchNo (None, 32, 64, 1024) 4096        conv4_block4_out[0][0]           
__________________________________________________________________________________________________
conv4_block5_preact_relu (Activ (None, 32, 64, 1024) 0           conv4_block5_preact_bn[0][0]     
__________________________________________________________________________________________________
conv4_block5_1_conv (Conv2D)    (None, 32, 64, 256)  262144      conv4_block5_preact_relu[0][0]   
__________________________________________________________________________________________________
conv4_block5_1_bn (BatchNormali (None, 32, 64, 256)  1024        conv4_block5_1_conv[0][0]        
__________________________________________________________________________________________________
conv4_block5_1_relu (Activation (None, 32, 64, 256)  0           conv4_block5_1_bn[0][0]          
__________________________________________________________________________________________________
conv4_block5_2_pad (ZeroPadding (None, 34, 66, 256)  0           conv4_block5_1_relu[0][0]        
__________________________________________________________________________________________________
conv4_block5_2_conv (Conv2D)    (None, 32, 64, 256)  589824      conv4_block5_2_pad[0][0]         
__________________________________________________________________________________________________
conv4_block5_2_bn (BatchNormali (None, 32, 64, 256)  1024        conv4_block5_2_conv[0][0]        
__________________________________________________________________________________________________
conv4_block5_2_relu (Activation (None, 32, 64, 256)  0           conv4_block5_2_bn[0][0]          
__________________________________________________________________________________________________
conv4_block5_3_conv (Conv2D)    (None, 32, 64, 1024) 263168      conv4_block5_2_relu[0][0]        
__________________________________________________________________________________________________
conv4_block5_out (Add)          (None, 32, 64, 1024) 0           conv4_block4_out[0][0]           
                                                                 conv4_block5_3_conv[0][0]        
__________________________________________________________________________________________________
conv4_block6_preact_bn (BatchNo (None, 32, 64, 1024) 4096        conv4_block5_out[0][0]           
__________________________________________________________________________________________________
conv4_block6_preact_relu (Activ (None, 32, 64, 1024) 0           conv4_block6_preact_bn[0][0]     
__________________________________________________________________________________________________
conv4_block6_1_conv (Conv2D)    (None, 32, 64, 256)  262144      conv4_block6_preact_relu[0][0]   
__________________________________________________________________________________________________
conv4_block6_1_bn (BatchNormali (None, 32, 64, 256)  1024        conv4_block6_1_conv[0][0]        
__________________________________________________________________________________________________
conv4_block6_1_relu (Activation (None, 32, 64, 256)  0           conv4_block6_1_bn[0][0]          
__________________________________________________________________________________________________
conv4_block6_2_pad (ZeroPadding (None, 34, 66, 256)  0           conv4_block6_1_relu[0][0]        
__________________________________________________________________________________________________
conv4_block6_2_conv (Conv2D)    (None, 16, 32, 256)  589824      conv4_block6_2_pad[0][0]         
__________________________________________________________________________________________________
conv4_block6_2_bn (BatchNormali (None, 16, 32, 256)  1024        conv4_block6_2_conv[0][0]        
__________________________________________________________________________________________________
conv4_block6_2_relu (Activation (None, 16, 32, 256)  0           conv4_block6_2_bn[0][0]          
__________________________________________________________________________________________________
max_pooling2d_2 (MaxPooling2D)  (None, 16, 32, 1024) 0           conv4_block5_out[0][0]           
__________________________________________________________________________________________________
conv4_block6_3_conv (Conv2D)    (None, 16, 32, 1024) 263168      conv4_block6_2_relu[0][0]        
__________________________________________________________________________________________________
conv4_block6_out (Add)          (None, 16, 32, 1024) 0           max_pooling2d_2[0][0]            
                                                                 conv4_block6_3_conv[0][0]        
__________________________________________________________________________________________________
conv5_block1_preact_bn (BatchNo (None, 16, 32, 1024) 4096        conv4_block6_out[0][0]           
__________________________________________________________________________________________________
conv5_block1_preact_relu (Activ (None, 16, 32, 1024) 0           conv5_block1_preact_bn[0][0]     
__________________________________________________________________________________________________
conv5_block1_1_conv (Conv2D)    (None, 16, 32, 512)  524288      conv5_block1_preact_relu[0][0]   
__________________________________________________________________________________________________
conv5_block1_1_bn (BatchNormali (None, 16, 32, 512)  2048        conv5_block1_1_conv[0][0]        
__________________________________________________________________________________________________
conv5_block1_1_relu (Activation (None, 16, 32, 512)  0           conv5_block1_1_bn[0][0]          
__________________________________________________________________________________________________
conv5_block1_2_pad (ZeroPadding (None, 18, 34, 512)  0           conv5_block1_1_relu[0][0]        
__________________________________________________________________________________________________
conv5_block1_2_conv (Conv2D)    (None, 16, 32, 512)  2359296     conv5_block1_2_pad[0][0]         
__________________________________________________________________________________________________
conv5_block1_2_bn (BatchNormali (None, 16, 32, 512)  2048        conv5_block1_2_conv[0][0]        
__________________________________________________________________________________________________
conv5_block1_2_relu (Activation (None, 16, 32, 512)  0           conv5_block1_2_bn[0][0]          
__________________________________________________________________________________________________
conv5_block1_0_conv (Conv2D)    (None, 16, 32, 2048) 2099200     conv5_block1_preact_relu[0][0]   
__________________________________________________________________________________________________
conv5_block1_3_conv (Conv2D)    (None, 16, 32, 2048) 1050624     conv5_block1_2_relu[0][0]        
__________________________________________________________________________________________________
conv5_block1_out (Add)          (None, 16, 32, 2048) 0           conv5_block1_0_conv[0][0]        
                                                                 conv5_block1_3_conv[0][0]        
__________________________________________________________________________________________________
conv5_block2_preact_bn (BatchNo (None, 16, 32, 2048) 8192        conv5_block1_out[0][0]           
__________________________________________________________________________________________________
conv5_block2_preact_relu (Activ (None, 16, 32, 2048) 0           conv5_block2_preact_bn[0][0]     
__________________________________________________________________________________________________
conv5_block2_1_conv (Conv2D)    (None, 16, 32, 512)  1048576     conv5_block2_preact_relu[0][0]   
__________________________________________________________________________________________________
conv5_block2_1_bn (BatchNormali (None, 16, 32, 512)  2048        conv5_block2_1_conv[0][0]        
__________________________________________________________________________________________________
conv5_block2_1_relu (Activation (None, 16, 32, 512)  0           conv5_block2_1_bn[0][0]          
__________________________________________________________________________________________________
conv5_block2_2_pad (ZeroPadding (None, 18, 34, 512)  0           conv5_block2_1_relu[0][0]        
__________________________________________________________________________________________________
conv5_block2_2_conv (Conv2D)    (None, 16, 32, 512)  2359296     conv5_block2_2_pad[0][0]         
__________________________________________________________________________________________________
conv5_block2_2_bn (BatchNormali (None, 16, 32, 512)  2048        conv5_block2_2_conv[0][0]        
__________________________________________________________________________________________________
conv5_block2_2_relu (Activation (None, 16, 32, 512)  0           conv5_block2_2_bn[0][0]          
__________________________________________________________________________________________________
conv5_block2_3_conv (Conv2D)    (None, 16, 32, 2048) 1050624     conv5_block2_2_relu[0][0]        
__________________________________________________________________________________________________
conv5_block2_out (Add)          (None, 16, 32, 2048) 0           conv5_block1_out[0][0]           
                                                                 conv5_block2_3_conv[0][0]        
__________________________________________________________________________________________________
conv5_block3_preact_bn (BatchNo (None, 16, 32, 2048) 8192        conv5_block2_out[0][0]           
__________________________________________________________________________________________________
conv5_block3_preact_relu (Activ (None, 16, 32, 2048) 0           conv5_block3_preact_bn[0][0]     
__________________________________________________________________________________________________
conv5_block3_1_conv (Conv2D)    (None, 16, 32, 512)  1048576     conv5_block3_preact_relu[0][0]   
__________________________________________________________________________________________________
conv5_block3_1_bn (BatchNormali (None, 16, 32, 512)  2048        conv5_block3_1_conv[0][0]        
__________________________________________________________________________________________________
conv5_block3_1_relu (Activation (None, 16, 32, 512)  0           conv5_block3_1_bn[0][0]          
__________________________________________________________________________________________________
conv5_block3_2_pad (ZeroPadding (None, 18, 34, 512)  0           conv5_block3_1_relu[0][0]        
__________________________________________________________________________________________________
conv5_block3_2_conv (Conv2D)    (None, 16, 32, 512)  2359296     conv5_block3_2_pad[0][0]         
__________________________________________________________________________________________________
conv5_block3_2_bn (BatchNormali (None, 16, 32, 512)  2048        conv5_block3_2_conv[0][0]        
__________________________________________________________________________________________________
conv5_block3_2_relu (Activation (None, 16, 32, 512)  0           conv5_block3_2_bn[0][0]          
__________________________________________________________________________________________________
conv5_block3_3_conv (Conv2D)    (None, 16, 32, 2048) 1050624     conv5_block3_2_relu[0][0]        
__________________________________________________________________________________________________
conv5_block3_out (Add)          (None, 16, 32, 2048) 0           conv5_block2_out[0][0]           
                                                                 conv5_block3_3_conv[0][0]        
__________________________________________________________________________________________________
post_bn (BatchNormalization)    (None, 16, 32, 2048) 8192        conv5_block3_out[0][0]           
__________________________________________________________________________________________________
post_relu (Activation)          (None, 16, 32, 2048) 0           post_bn[0][0]                    
__________________________________________________________________________________________________
conv2d (Conv2D)                 (None, 16, 32, 256)  4718848     post_relu[0][0]                  
__________________________________________________________________________________________________
batch_normalization (BatchNorma (None, 16, 32, 256)  1024        conv2d[0][0]                     
__________________________________________________________________________________________________
activation (Activation)         (None, 16, 32, 256)  0           batch_normalization[0][0]        
__________________________________________________________________________________________________
conv2d_1 (Conv2D)               (None, 16, 32, 256)  590080      activation[0][0]                 
__________________________________________________________________________________________________
batch_normalization_1 (BatchNor (None, 16, 32, 256)  1024        conv2d_1[0][0]                   
__________________________________________________________________________________________________
activation_1 (Activation)       (None, 16, 32, 256)  0           batch_normalization_1[0][0]      
__________________________________________________________________________________________________
conv2d_2 (Conv2D)               (None, 16, 32, 20)   5140        activation_1[0][0]               
__________________________________________________________________________________________________
up_sampling2d (UpSampling2D)    (None, 512, 1024, 20 0           conv2d_2[0][0]                   
__________________________________________________________________________________________________
one_hot_categorical (OneHotCate multiple             0           up_sampling2d[0][0]              
…
